…
2018-05-14 22:17:50

----------

* [modify:train/valid|test] (apply_mean_centering):
	Mean Centering

* [modify:train/valid|test] (spline_interpolate_and_resample):
	B-Spine Interpolation and Resampling (Warning: Deletes time and pressure features!)
	>> args: ()
	>> keywords: {'num_samples': 50}

----------

Optimizer: <class 'keras.optimizers.Nadam'>
Batch Size: 500
Number of Epochs: 30

_________________________________________________________________
Layer (type)                 Output Shape              Param #   
=================================================================
gru_1 (GRU)                  (None, 50, 512)           791040    
_________________________________________________________________
dropout_1 (Dropout)          (None, 50, 512)           0         
_________________________________________________________________
gru_2 (GRU)                  (None, 50, 512)           1575936   
_________________________________________________________________
dropout_2 (Dropout)          (None, 50, 512)           0         
_________________________________________________________________
gru_3 (GRU)                  (None, 512)               1575936   
_________________________________________________________________
dropout_3 (Dropout)          (None, 512)               0         
_________________________________________________________________
dense_1 (Dense)              (None, 256)               131328    
_________________________________________________________________
activation_1 (Activation)    (None, 256)               0         
_________________________________________________________________
dropout_4 (Dropout)          (None, 256)               0         
_________________________________________________________________
dense_2 (Dense)              (None, 10)                2570      
_________________________________________________________________
activation_2 (Activation)    (None, 10)                0         
=================================================================
Total params: 4,076,810
Trainable params: 4,076,810
Non-trainable params: 0
_________________________________________________________________


----------

