…
* [modify:train/valid|test] (apply_unit_distance_normalization):
	Unit Distance Normalization

* [modify:train/valid|test] (spline_interpolate_and_resample):
	B-Spine Interpolation and Resampling (Warning: Deletes time and pressure features!)
	>> args: ()
	>> keywords: {'num_samples': 50}

----------

Optimizer: <class 'keras.optimizers.Nadam'>
Batch Size: 500
Number of Epochs: 60

_________________________________________________________________
Layer (type)                 Output Shape              Param #   
=================================================================
gru_22 (GRU)                 (None, 50, 512)           791040    
_________________________________________________________________
dropout_29 (Dropout)         (None, 50, 512)           0         
_________________________________________________________________
gru_23 (GRU)                 (None, 50, 512)           1575936   
_________________________________________________________________
dropout_30 (Dropout)         (None, 50, 512)           0         
_________________________________________________________________
gru_24 (GRU)                 (None, 512)               1575936   
_________________________________________________________________
dropout_31 (Dropout)         (None, 512)               0         
_________________________________________________________________
dense_15 (Dense)             (None, 256)               131328    
_________________________________________________________________
activation_15 (Activation)   (None, 256)               0         
_________________________________________________________________
dropout_32 (Dropout)         (None, 256)               0         
_________________________________________________________________
dense_16 (Dense)             (None, 10)                2570      
_________________________________________________________________
activation_16 (Activation)   (None, 10)                0         
=================================================================
Total params: 4,076,810
Trainable params: 4,076,810
Non-trainable params: 0
_________________________________________________________________


----------

