…
* [modify:train/valid|test] (spline_interpolate_and_resample):
	B-Spine Interpolation and Resampling (Warning: Deletes time and pressure features!)
	>> args: ()
	>> keywords: {'num_samples': 50}

* [expand:train/valid|test] (reverse_digit_sequence):
	Reverse Order of Digit Sequences

----------

Optimizer: <class 'keras.optimizers.Nadam'>
Batch Size: 500
Number of Epochs: 70

_________________________________________________________________
Layer (type)                 Output Shape              Param #   
=================================================================
gru_10 (GRU)                 (None, 50, 512)           791040    
_________________________________________________________________
dropout_13 (Dropout)         (None, 50, 512)           0         
_________________________________________________________________
gru_11 (GRU)                 (None, 50, 512)           1575936   
_________________________________________________________________
dropout_14 (Dropout)         (None, 50, 512)           0         
_________________________________________________________________
gru_12 (GRU)                 (None, 512)               1575936   
_________________________________________________________________
dropout_15 (Dropout)         (None, 512)               0         
_________________________________________________________________
dense_7 (Dense)              (None, 256)               131328    
_________________________________________________________________
activation_7 (Activation)    (None, 256)               0         
_________________________________________________________________
dropout_16 (Dropout)         (None, 256)               0         
_________________________________________________________________
dense_8 (Dense)              (None, 10)                2570      
_________________________________________________________________
activation_8 (Activation)    (None, 10)                0         
=================================================================
Total params: 4,076,810
Trainable params: 4,076,810
Non-trainable params: 0
_________________________________________________________________


----------

