…
* [modify:train/valid|test] (spline_interpolate_and_resample):
	B-Spine Interpolation and Resampling (Warning: Deletes time and pressure features!)
	>> args: ()
	>> keywords: {'num_samples': 50}

* [expand:train/valid|test] (reverse_digit_sequence):
	Reverse Order of Digit Sequences

----------

Optimizer: <class 'keras.optimizers.Nadam'>
Batch Size: 300
Number of Epochs: 30

_________________________________________________________________
Layer (type)                 Output Shape              Param #   
=================================================================
gru_1 (GRU)                  (None, 50, 1024)          3154944   
_________________________________________________________________
dropout_1 (Dropout)          (None, 50, 1024)          0         
_________________________________________________________________
gru_2 (GRU)                  (None, 1024)              6294528   
_________________________________________________________________
dropout_2 (Dropout)          (None, 1024)              0         
_________________________________________________________________
dense_1 (Dense)              (None, 256)               262400    
_________________________________________________________________
activation_1 (Activation)    (None, 256)               0         
_________________________________________________________________
dense_2 (Dense)              (None, 10)                2570      
_________________________________________________________________
activation_2 (Activation)    (None, 10)                0         
=================================================================
Total params: 9,714,442
Trainable params: 9,714,442
Non-trainable params: 0
_________________________________________________________________


----------

