…
	Unit Distance Normalization

* [modify:train|test] (spline_interpolate_and_resample):
	B-Spine Interpolation and Resampling (Warning: Deletes time and pressure features!)
	>> args: ()
	>> keywords: {'num_samples': 50}

* [expand:train|test] (reverse_digit_sequence):
	Reverse Order of Digit Sequences

----------

Optimizer: <class 'keras.optimizers.Nadam'>
Batch Size: 300
Number of Epochs: 30

_________________________________________________________________
Layer (type)                 Output Shape              Param #   
=================================================================
gru_15 (GRU)                 (None, 50, 256)           198912    
_________________________________________________________________
dropout_15 (Dropout)         (None, 50, 256)           0         
_________________________________________________________________
gru_16 (GRU)                 (None, 256)               393984    
_________________________________________________________________
dropout_16 (Dropout)         (None, 256)               0         
_________________________________________________________________
dense_8 (Dense)              (None, 10)                2570      
_________________________________________________________________
activation_8 (Activation)    (None, 10)                0         
=================================================================
Total params: 595,466
Trainable params: 595,466
Non-trainable params: 0
_________________________________________________________________


----------

