…
	B-Spine Interpolation and Resampling (Warning: Deletes time and pressure features!)
	>> args: ()
	>> keywords: {'num_samples': 50}

* [expand:train/valid|test] (rotate_digit):
	Rotate Digits
	>> args: ()
	>> keywords: {'degrees': [5, 10, 15, 45, -5, -10, -15, -45]}

* [expand:train/valid|test] (reverse_digit_sequence):
	Reverse Order of Digit Sequences

----------

Optimizer: <class 'keras.optimizers.Nadam'>
Batch Size: 500
Number of Epochs: 30

_________________________________________________________________
Layer (type)                 Output Shape              Param #   
=================================================================
gru_33 (GRU)                 (None, 50, 512)           791040    
_________________________________________________________________
dropout_34 (Dropout)         (None, 50, 512)           0         
_________________________________________________________________
gru_34 (GRU)                 (None, 50, 512)           1575936   
_________________________________________________________________
dropout_35 (Dropout)         (None, 50, 512)           0         
_________________________________________________________________
gru_35 (GRU)                 (None, 512)               1575936   
_________________________________________________________________
dropout_36 (Dropout)         (None, 512)               0         
_________________________________________________________________
dense_27 (Dense)             (None, 256)               131328    
_________________________________________________________________
activation_27 (Activation)   (None, 256)               0         
_________________________________________________________________
dropout_37 (Dropout)         (None, 256)               0         
_________________________________________________________________
dense_28 (Dense)             (None, 10)                2570      
_________________________________________________________________
activation_28 (Activation)   (None, 10)                0         
=================================================================
Total params: 4,076,810
Trainable params: 4,076,810
Non-trainable params: 0
_________________________________________________________________


----------

