…
* [modify:train/valid|test] (spline_interpolate_and_resample):
	B-Spine Interpolation and Resampling (Warning: Deletes time and pressure features!)
	>> args: ()
	>> keywords: {'num_samples': 50}

* [expand:train/valid|test] (rotate_digit):
	Rotate Digits
	>> args: ()
	>> keywords: {'degrees': [5, 10, 15, 45, -5, -10, -15, -45]}

----------

Optimizer: <class 'keras.optimizers.Nadam'>
Batch Size: 200
Number of Epochs: 30

_________________________________________________________________
Layer (type)                 Output Shape              Param #   
=================================================================
gru_22 (GRU)                 (None, 50, 512)           791040    
_________________________________________________________________
dropout_21 (Dropout)         (None, 50, 512)           0         
_________________________________________________________________
gru_23 (GRU)                 (None, 512)               1575936   
_________________________________________________________________
dropout_22 (Dropout)         (None, 512)               0         
_________________________________________________________________
dense_21 (Dense)             (None, 256)               131328    
_________________________________________________________________
activation_21 (Activation)   (None, 256)               0         
_________________________________________________________________
dropout_23 (Dropout)         (None, 256)               0         
_________________________________________________________________
dense_22 (Dense)             (None, 10)                2570      
_________________________________________________________________
activation_22 (Activation)   (None, 10)                0         
=================================================================
Total params: 2,500,874
Trainable params: 2,500,874
Non-trainable params: 0
_________________________________________________________________


----------

